checkpoint.pth (torch_old, 45255 bytes, 8 tensors)

fc1.weight f4 [64, 37]
0	0xbc0e0f6b	-0.008670668
1	0x3da0bb2d	0.07848201
2	0x3d99478a	0.07484348
3	0x3d257abe	0.04040026
4	0x3e23ebe9	0.16007961
5	0x3e81b2b6	0.25331658
6	0xbe13cdbe	-0.14433953
7	0xbd5ffba2	-0.054683335
8	0xbe8a6651	-0.27031186
9	0xbf9db28a	-1.2320111
10	0xbb35d5a0	-0.0027745739
11	0x3cdcad45	0.02693809
12	0x3bb04749	0.0053795916
13	0x3e5870ec	0.21136826
14	0x3e83c9b1	0.25739816
15	0x3b5e7e84	0.003394992
16	0x3da67bf5	0.08129112
17	0xbcc3f12a	-0.023918707
18	0xbb728f51	-0.0037011693
19	0x3e29653e	0.16542527
20	0xbdb00f3e	-0.08596657
21	0xbc9d43a5	-0.019197294
22	0x3d35723d	0.0442984
23	0x3d8ad58d	0.06779013
24	0x3dafd702	0.08585931
25	0x3cd84907	0.02640201
26	0x3c1c068e	0.009523047
27	0x3c12d910	0.008962885
28	0x3bea1feb	0.007144918
29	0xbdf86e41	-0.12130404
30	0xbdc3041d	-0.09522269
31	0xbdf4a801	-0.11946107
32	0x3da76e9d	0.08175395
33	0x3dabacf5	0.08382598
34	0x3db96c4c	0.09053859
35	0x3c04b728	0.0081003085
36	0x3a67edbd	0.00088473764
37	0x3bdf902f	0.006822608
38	0xbd824115	-0.0636007
39	0xbdbb3911	-0.09141744
40	0xbe2352c6	-0.15949544
41	0xbde22176	-0.110415384
42	0xbd883697	-0.06651037
43	0xbe58a883	-0.21158032
44	0x3e82e7b5	0.25567403
45	0x3ec8af03	0.39196023
46	0x3f37159d	0.71517354
47	0xbce85c06	-0.028364193
48	0xbd44e6f4	-0.048071817
49	0x3a496fba	0.000768419
50	0x3dec7bbc	0.11547038
51	0x3d98b545	0.074564494
52	0x3d00fe9c	0.031492814
53	0x3d3e0dc6	0.046399854
54	0xbdea23cc	-0.11432609
55	0x3dd7709e	0.10519527
56	0x3ed4b435	0.41543737
57	0x3df9e909	0.12202651
58	0xbc62657e	-0.013818143
59	0x3d2eca78	0.042673558
60	0x3cc0916f	0.023506848
61	0xbb2ed398	-0.0026676413
62	0xbcfc2686	-0.030780088
63	0x3e3d4b49	0.1848575
64	0x3dc921f7	0.098209314
65	0xbd057a91	-0.03258759
66	0x3dc49d05	0.096002616
67	0xbe645e2a	-0.22301546
68	0xbe3acb0f	-0.18241523
69	0xbd2aafc2	-0.041671522
70	0x3e005e4d	0.12535973
71	0x3f1b9669	0.6077638
72	0x3c939110	0.018013507
73	0x3be652cc	0.007028913
74	0xbe16ded2	-0.14733437
75	0xbcb52169	-0.022110658
76	0x3dd20e6c	0.10256657
77	0xbd9cecae	-0.076623306
78	0x3d4bf62d	0.04979532
79	0xbdde3b10	-0.10851109
80	0x3dde1bd8	0.108451545
81	0xbe3beda7	-0.18352376
82	0xbd048dec	-0.03236191
83	0xbb2a99c4	-0.0026031593
84	0xbd2477c4	-0.04015328
85	0xbded644d	-0.115913965
86	0x3d8cd61c	0.068767756
87	0x3e177d1c	0.14793819
88	0x3d8b7dc9	0.06811101
89	0xbc7530d2	-0.014965253
90	0xbdb72e15	-0.08944336
91	0xbcc33830	-0.023830503
92	0xbca982fe	-0.020692345
93	0x3c3f622d	0.011681122
94	0x3eb47d0d	0.35251656
95	0xbe0946c5	-0.13405903
96	0xbec36bc5	-0.3816816
97	0xbedb1729	-0.42791107
98	0xbf7221b9	-0.94582707
99	0xbdc868e0	-0.09785628
100	0xbddaf3dc	-0.10691044
101	0xbe03e15e	-0.1287894
102	0x3e2e9f5d	0.1705298
103	0x3e9bec05	0.30453506
104	0x3db17097	0.08664053
105	0xbdabe209	-0.08392722
106	0x3d9aa7f6	0.07551567
107	0x3dd05ae0	0.10173583
108	0xbdbb2474	-0.09137812
109	0x3d7c050e	0.061528258
110	0x3ce74587	0.028231395
111	0x3c8a2e1c	0.01686769
112	0xbe04099e	-0.12894294
113	0xbd8f727a	-0.070042565
114	0x3cf8b4ba	0.030359615
115	0xbe480103	-0.19531636
116	0x3e326aa7	0.17423497
117	0x3da0fb48	0.07860428
118	0x3ce917d7	0.02845375
119	0xbe4a3e21	-0.19750263
120	0x3d866a69	0.06563265
121	0x3d56dadb	0.05245481
122	0xbd2d998a	-0.042382754
123	0xbc00d417	-0.007863066
124	0x3e229b6d	0.15879603
125	0x3d333707	0.04375365
126	0xbd19e5b7	-0.03757259
127	0x3dbfa200	0.09357071
128	0xbd977520	-0.07395387
129	0xbdee4051	-0.11633361
130	0xbd9de3a0	-0.07709432
131	0x3e1a4c02	0.15068057
132	0xbcb5d090	-0.022194177
133	0xbe999966	-0.29999846
134	0xbe38eb50	-0.18058515
135	0xbe3c3aed	-0.18381853
136	0x3e2a210d	0.1661417
137	0xbd098a4e	-0.033579163
138	0x3b4b7bc5	0.0031049114
139	0xbd847516	-0.06467645
140	0xbf00b6c8	-0.502789
141	0x3d01f2c5	0.031725664
142	0x3dabc2e3	0.08386781
143	0x3e86311a	0.26209337
144	0xbdf48d26	-0.119409844
145	0x3f248a99	0.64273983
146	0x3cb9b006	0.022666942
147	0xbaa903dc	-0.0012894827
148	0x3d2af9a5	0.041741986
149	0xbbfc70bc	-0.0077038687
150	0x3d0855e2	0.03328503
151	0xbed73c91	-0.42038396
152	0xbeb3438e	-0.35012478
153	0xbdaea495	-0.08527485
154	0xbe82dfa9	-0.25561264
155	0xbd114488	-0.035465747
156	0xbe52fef6	-0.20605072
157	0xbe2c1d8f	-0.1680815
158	0x3d9c8c19	0.07643909
159	0x3cf6c50c	0.030123256
160	0xbe92c04d	-0.2866234
161	0xbd370481	-0.04468203
162	0x3df01f81	0.11724759
163	0xbe02bdf7	-0.12767778
164	0xbd80af8b	-0.06283482
165	0x3d7e6161	0.062104587
166	0xbe73c8f7	-0.23807131
167	0x3e8a17f2	0.26971394
168	0xbcaccd0a	-0.021093864
169	0xbec48931	-0.3838592
170	0xbdb91793	-0.090376996
171	0xbe5921b6	-0.21204266
172	0xbd24719e	-0.040147416
173	0xbe17ab26	-0.14811382
174	0xbe1f832c	-0.15577382
175	0xbe1ce9ab	-0.15323512
176	0x3d085484	0.033283725
177	0x3d80f1b8	0.06296104
178	0xbdb95003	-0.09048464
179	0xbebb38eb	-0.36566862
180	0x3e81ecae	0.25375885
181	0xbe308812	-0.17239407
182	0xbe4ce8d3	-0.2001069
183	0xbc119bd4	-0.00888725
184	0xbe0a69c3	-0.13516907
185	0xbe9d9ad0	-0.30782175
186	0x3e498770	0.19680572
187	0x3d30f9a5	0.04320683
188	0x3e1b1665	0.15145262
189	0xbd264176	-0.040589772
190	0x3e910f06	0.28331774
191	0xbf2906b5	-0.6602586
192	0xbdb7392e	-0.08946453
193	0xbea147fb	-0.3150023
194	0xbf4f5ed8	-0.81004095
195	0xbc67b9a7	-0.014143384
196	0x3c9dd9a5	0.01926882
197	0xbe5b9121	-0.21442081
198	0x3dd560fc	0.10418889
199	0x3e425832	0.18978956
200	0xbe886216	-0.26637334
201	0xbd50f61b	-0.051015954
202	0xbd782037	-0.060577597
203	0xbddf4af4	-0.10902968
204	0xb893bd0e	-7.0447204e-05
205	0x3df0611a	0.11737271
206	0x3bc3245b	0.0059552616
207	0xbe2bc7e1	-0.16775467
208	0x3dd4f74a	0.10398729
209	0xbe9bbfe9	-0.30419853
210	0xbe7772b3	-0.24164848
211	0xbe0b54bd	-0.13606544
212	0x3e19874e	0.14993021
213	0xbc89d6ec	-0.016826116
214	0x3d153bb4	0.03643389
215	0x3d9ab040	0.07553148
216	0x3e4acae3	0.19803958
217	0x3c919edb	0.017775944
218	0xbe07d0b9	-0.13263215
219	0xbe2d0b70	-0.16898894
220	0xbdb2d170	-0.08731353
221	0xbd21023b	-0.039308768
222	0x3e225d55	0.15855916
223	0x3dc07004	0.09396365
224	0x3e0ebf01	0.1394005
225	0x3dd9ab90	0.10628426
226	0xbd1f1834	-0.03884144
227	0x3f075648	0.5286603
228	0xbf4bfb9f	-0.7968082
229	0xbefeca5f	-0.49763772
230	0xbf172440	-0.5903969
231	0xc015ddb6	-2.3416572
232	0xbbd66477	-0.006542738
233	0x3dc269bc	0.094928235
234	0x3dad4185	0.084597625
235	0x3d989bde	0.07451604
236	0x3d891991	0.066943295
237	0x3cb13e85	0.021636257
238	0xbb5d7683	-0.0033792562
239	0xbbe33f7f	-0.0069350596
240	0x3c492502	0.01227689
241	0xbb87cbf2	-0.004144185
242	0x3d50383f	0.05083489
243	0x3d78c094	0.06073053
244	0x3d95a5d5	0.073070206
245	0x3d9cdf7d	0.076598145
246	0x3da7bc3c	0.081902
247	0x3c8717b5	0.016490797
248	0x3dd7dba8	0.10539943
249	0x3da0884e	0.07838498
250	0xbae90676	-0.0017778415
251	0x3d92afa1	0.07162405
252	0x3cd6b27c	0.026208155
253	0xbc30bb1d	-0.010786799
254	0x3d963537	0.07334369
255	0x3d8655e0	0.06559348

fc1.bias f4 [64]
0	0x3e0a8590	0.13527513
1	0xbd496929	-0.049172554
2	0x3d58f9e0	0.052972674
3	0x3bc414e8	0.0059839375
4	0xbe350100	-0.17676163
5	0x3d09eeca	0.033674993
6	0x3e33b6ea	0.17550245
7	0x3deae0bd	0.11468647
8	0xbe3c3298	-0.18378675
9	0x3e0d3a42	0.13791755
10	0x3d1a8e96	0.037733637
11	0x3e1e9ec0	0.15490246
12	0x3e58f8d2	0.21188667
13	0x3d974346	0.07385878
14	0x3d75a7b7	0.0599744
15	0xbc553cfc	-0.013015028
16	0xbdae2bd4	-0.08504453
17	0xbdba7cff	-0.09105872
18	0x3c06276f	0.008188113
19	0xbd2ed5ea	-0.042684473
20	0xbe565f39	-0.20934762
21	0x3d751237	0.059831824
22	0xbe346368	-0.17616045
23	0xbce80259	-0.028321432
24	0xbdf75807	-0.12077337
25	0x3d58c866	0.05292549
26	0x3db609a3	0.08888557
27	0x3e88f635	0.2675034
28	0xbd8295d4	-0.06376234
29	0x3e4ec7f2	0.2019346
30	0x3e490372	0.1963022
31	0x3bbb1e40	0.005710393
32	0xbe029cb4	-0.1275509
33	0x3d6614f8	0.05617234
34	0xbe1bb90e	-0.15207312
35	0xbd496546	-0.049168848
36	0x3e039750	0.1285069
37	0xbe161e0c	-0.146599
38	0x3c8626c8	0.016375914
39	0x3dc4ae74	0.09603587
40	0x3d9ea833	0.07746925
41	0x3bb29d2a	0.0054508643
42	0x3e119be7	0.14219628
43	0xbdcf5126	-0.101229
44	0x3d2fc518	0.042912573
45	0x3c8c8dbf	0.017157434
46	0xbda8e6f3	-0.08247175
47	0xbe0a147e	-0.1348438
48	0xbcc5d8bc	-0.024151199
49	0xbd0d2edd	-0.03446852
50	0xbe19c745	-0.15017422
51	0x3c816dd8	0.015799448
52	0x3ddcd0da	0.10782023
53	0x3d1a3990	0.037652552
54	0xbe0edc27	-0.13951169
55	0xbd2d94ea	-0.042378344
56	0xbd1622ee	-0.036654405
57	0x3d301c6b	0.04299585
58	0x3e088580	0.13332176
59	0x3e07f7ca	0.13278118
60	0xbdce4480	-0.10071659
61	0xbc3b9088	-0.011448033
62	0x3e312cfa	0.17302313
63	0xbe8393b5	-0.2569863

fc2.weight f4 [64, 64]
0	0xbd9d49bd	-0.0768008
1	0x3a6d6a3e	0.0009056664
2	0x3d18cef5	0.037306745
3	0xbe9594a3	-0.29214963
4	0x3e0206ab	0.12697856
5	0x3dedef58	0.11617917
6	0xbe616376	-0.22010598
7	0xbd73204a	-0.059356965
8	0xbe1b1e13	-0.15148191
9	0xbe0d5d05	-0.13805015
10	0x3c6e276b	0.014535765
11	0x3eb86f02	0.36022192
12	0xbe22bb5a	-0.15891781
13	0xbc2886c3	-0.010286036
14	0x3ba9acd4	0.0051780734
15	0xbb583d7f	-0.003299564
16	0xbc2ae236	-0.010429909
17	0x3c1ed29e	0.00969377
18	0x3b866314	0.0041011665
19	0xbc89fc5b	-0.016843965
20	0xbd39054a	-0.04517106
21	0x3de122bd	0.10992954
22	0x3e90a6c9	0.28252247
23	0x3e688b90	0.22709489
24	0x3e378d93	0.179251
25	0x3dd81a12	0.105518475
26	0xbead91a7	-0.33900186
27	0x3d814ce6	0.06313495
28	0x3ce74944	0.028233178
29	0x3d00b886	0.031425975
30	0x3bcdf26d	0.006285003
31	0xbe485440	-0.19563389
32	0x3c25e788	0.010126002
33	0x3d7cc3c9	0.061710153
34	0xbde6ba39	-0.11265988
35	0xbda1cde8	-0.079006016
36	0x3dec39d4	0.11534467
37	0xbe1f777d	-0.15572925
38	0x3ce1b5b5	0.027552465
39	0xbe2fdadb	-0.1717333
40	0x3e30ec8d	0.17277737
41	0xbd142efd	-0.036177624
42	0x3e960b76	0.2930562
43	0xbe3f51f4	-0.18683606
44	0xbe43bdc2	-0.19115356
45	0x3e49f3e6	0.19721946
46	0x3e542618	0.20717657
47	0x3e2db4b2	0.16963461
48	0xbe3162fb	-0.17322914
49	0xbe6ade6d	-0.22936411
50	0xbd62b3ed	-0.05534737
51	0x3dca9bbd	0.09892986
52	0x3d3bde01	0.045866016
53	0x3d1aa62b	0.037756126
54	0xbe3909ff	-0.1807022
55	0xbe1e5943	-0.15463738
56	0x3e0c40ff	0.13696669
57	0x3e078381	0.13233759
58	0xbdd2431e	-0.10266708
59	0xbe057ed5	-0.13036664
60	0x3d7f6520	0.0623523
61	0x3d7ee3a6	0.06222882
62	0x3e069aea	0.13145033
63	0x3e173cae	0.14769241
64	0xbd063458	-0.032764763
65	0xbe88506b	-0.26623854
66	0xbe65a144	-0.22424799
67	0xbddc28f2	-0.10749997
68	0x3e33e044	0.1756602
69	0xbe8a6719	-0.27031782
70	0xbbebd2b4	-0.0071967486
71	0xbdfdfb89	-0.12401492
72	0xbe308400	-0.17237854
73	0xbb08a302	-0.0020849113
74	0x3cbfcafc	0.02341222
75	0x3e1fc107	0.15600978
76	0x3d493e98	0.04913196
77	0xbcff2364	-0.031144805
78	0xbdebc956	-0.11513011
79	0xbf0c6fb6	-0.5485796
80	0x3dd2988a	0.10283001
81	0xbd102fe3	-0.03520192
82	0x3d2ddb48	0.04244545
83	0xbe1d540f	-0.15364097
84	0xbe12b47c	-0.14326662
85	0x3e46db53	0.19419603
86	0xbe2c73c7	-0.1684104
87	0xbc029e67	-0.007972336
88	0xbebcd792	-0.36883217
89	0x3d692271	0.05691761
90	0x3e4cb764	0.19991833
91	0xbdf6df6c	-0.12054333
92	0xbc2bfddd	-0.010497537
93	0x3d3b1e48	0.045683175
94	0x3e42599b	0.18979494
95	0xbeb2cee4	-0.3492347
96	0x3d3dd486	0.046345256
97	0xbd13ab94	-0.0360523
98	0xbe1c1a49	-0.15244402
99	0x3d56c177	0.052430596
100	0xbe9106b2	-0.2832542
101	0x3c52b1e6	0.012859797
102	0x3e32e2aa	0.17469278
103	0x3cf5f0cc	0.030022047
104	0x3d548269	0.05188218
105	0x3e5c603f	0.2152109
106	0x3ddcbe8f	0.10778534
107	0xbe57412a	-0.21020952
108	0x3e32d5e4	0.17464405
109	0x3e714b22	0.23563817
110	0xbc9c4066	-0.019073676
111	0xbd37aa35	-0.044840056
112	0x3e62b304	0.22138602
113	0x3a1fd1ba	0.00060966203
114	0xbe1b4b93	-0.15165548
115	0xbe94cb27	-0.29061243
116	0xbeba83e7	-0.36428759
117	0x3e53c4ad	0.20680495
118	0xbe050bb7	-0.1299275
119	0xbe48a1f7	-0.19593035
120	0x3e1c5564	0.15266949
121	0x3e7f4a6e	0.24930736
122	0xbd673a3d	-0.056452025
123	0xbe678fc7	-0.2261344
124	0xbdabf569	-0.08396418
125	0xbf1a5858	-0.6029105
126	0xbdfae035	-0.12249795
127	0xbe81db9c	-0.2536286
128	0xbd806c82	-0.06270696
129	0xbd28abaf	-0.041179355
130	0xbd6e552a	-0.058186688
131	0xbec74322	-0.38918406
132	0xbd508d7d	-0.050916184
133	0x3c82c710	0.015964061
134	0x3c71fcec	0.014769774
135	0xbd01a3c0	-0.031650305
136	0xbebaed42	-0.36509138
137	0x3e81ab9c	0.2532624
138	0xbe4fbfcd	-0.2028801
139	0xbde48902	-0.11158945
140	0x3d11ed2a	0.035626568
141	0x3dbfc31e	0.093633875
142	0x3e473d3c	0.19456953
143	0x3d6a35c3	0.057180177
144	0xbeda4197	-0.42628166
145	0xbe203c6c	-0.15648049
146	0xbe10d670	-0.14144301
147	0x3de545ff	0.11194991
148	0xbe968f8c	-0.29406393
149	0xbd77d861	-0.06050909
150	0x3db3fc2a	0.08788331
151	0xbd49b25f	-0.049242374
152	0xbe29c97e	-0.1658077
153	0x3d25d066	0.040481947
154	0x3df64fe5	0.120269574
155	0x3ddb12ed	0.10696969
156	0xbe3115d3	-0.17293482
157	0x3e85d181	0.261364
158	0xbebd32c9	-0.36952808
159	0x3d755ccb	0.059902947
160	0x3dfc5a74	0.1232194
161	0xbe901f0b	-0.28148684
162	0xbe05e2e4	-0.13074833
163	0xbe3d0a61	-0.1846099
164	0xbd122c34	-0.035686687
165	0xbe33b825	-0.17550714
166	0x3d848000	0.064697266
167	0x3df25c11	0.118339665
168	0xbcb452b7	-0.022012098
169	0x3d875db6	0.06609671
170	0x3e2d7cf2	0.16942194
171	0xbe15056d	-0.14552851
172	0x3dabc613	0.08387389
173	0x3e314eec	0.17315263
174	0xbe97b5c2	-0.29630858
175	0xbe7f6720	-0.24941683
176	0x3d2c1aee	0.04201787
177	0xbde42d0d	-0.11141405
178	0xbe69ac9d	-0.22819753
179	0xbe4ccd49	-0.20000185
180	0xbce63a59	-0.028103994
181	0x3e0c567a	0.13704863
182	0x3e80542f	0.25064227
183	0x3c8ae94e	0.016956951
184	0x3dfbe9e1	0.12300468
185	0xbf19c52b	-0.6006648
186	0x3cb87536	0.022516828
187	0xbe8d841f	-0.27639863
188	0x3e84ded9	0.2595127
189	0xbcea1e6d	-0.028578961
190	0xbd78bf5f	-0.06072938
191	0x3d857d2f	0.065180175
192	0xbd2f76b0	-0.0428378
193	0xbd5a5ef0	-0.053313196
194	0xbe21e27d	-0.15809055
195	0x3e01ffe0	0.12695265
196	0xbd058095	-0.03259333
197	0xbb2e69ac	-0.0026613278
198	0xbe375961	-0.17905189
199	0x3dc78719	0.09742565
200	0x3cd5f3ee	0.026117291
201	0x3e7cef19	0.24700584
202	0xbc986231	-0.018601509
203	0x3cea9a08	0.028637901
204	0xba94f8c3	-0.0011365641
205	0xbef9309c	-0.486699
206	0x3d0a0939	0.0337002
207	0xbe34bc91	-0.17650057
208	0x3e0d2196	0.13782343
209	0xbe116955	-0.14200337
210	0xbe10d06c	-0.14142007
211	0x3ccc0a13	0.024907148
212	0x3d49e3a0	0.049289346
213	0xbd5c1c27	-0.053737786
214	0x3e507223	0.2035604
215	0x3df18365	0.1179264
216	0xbde0f60f	-0.10984432
217	0x3d86de56	0.06585376
218	0x3da26f2d	0.07931361
219	0xbed0ccd7	-0.4078128
220	0xbd0a6849	-0.03379086
221	0xbd0b4df0	-0.034009874
222	0xbec76eb9	-0.38951662
223	0x3d61b4dd	0.055104125
224	0x3cce7009	0.025199907
225	0xbe74b572	-0.23897341
226	0x3e4baf12	0.19891003
227	0xbd2eb9da	-0.04265771
228	0x3e6a4fdc	0.22882026
229	0xbcc9be2c	-0.024626814
230	0xbddf95c4	-0.109172374
231	0xbe7e33a4	-0.24824387
232	0xbeba6b13	-0.36409816
233	0x3d22165e	0.039572112
234	0xbe336be1	-0.17521621
235	0x3dc9a108	0.098451674
236	0xbdfc7b40	-0.123281956
237	0xbc226d07	-0.009913689
238	0x3e2e6481	0.17030527
239	0x3dcc00b4	0.099610716
240	0xbdd5dfcb	-0.10443076
241	0xbde86e09	-0.113491125
242	0xbca5a62a	-0.020220835
243	0xbc491abc	-0.01227444
244	0xbdeef3e2	-0.11667611
245	0xbe12d308	-0.14338315
246	0xbdc18651	-0.09449447
247	0xbe8bc485	-0.2729837
248	0x3e6de9cd	0.23233719
249	0xbd8a7ad5	-0.067617096
250	0x3cb1d668	0.021708682
251	0xbbb0be40	-0.0053937733
252	0x3db35591	0.08756555
253	0xbd526ff6	-0.051376306
254	0x3ca23b83	0.019803768
255	0x3e446118	0.19177663

fc2.bias f4 [64]
0	0x3ca2fd2c	0.019896112
1	0x3dd2bd29	0.10289986
2	0x3db05b25	0.086111344
3	0x3e65937f	0.22419547
4	0xbc8e7310	-0.01738885
5	0xbc274115	-0.010208388
6	0xbd4d8b91	-0.05018193
7	0x3ca108d4	0.01965753
8	0xbc0f9b2b	-0.008765022
9	0x3dcd0546	0.100107715
10	0x3c8ee7c2	0.017444495
11	0xbdfc6e4f	-0.12325727
12	0xbd80ada3	-0.062831186
13	0x3ba56da7	0.005048472
14	0x3db15377	0.08658498
15	0x3cd76e2f	0.026297657
16	0x3d989dec	0.07451996
17	0x3e1a65bb	0.1507787
18	0x3e040334	0.12891847
19	0x3da3ea55	0.0800368
20	0xbd1d7d35	-0.038449485
21	0xbbc54400	-0.006020069
22	0xbe47b123	-0.19501166
23	0xbddf7236	-0.10910456
24	0x3ba1366f	0.004919819
25	0x3b8b9148	0.0042592622
26	0xbdbd485e	-0.092423186
27	0xbdee3f39	-0.116331525
28	0xbc4d785e	-0.012540905
29	0xbdb0938b	-0.086218916
30	0xbdaaafcf	-0.08334314
31	0xbd6c2ebe	-0.057661764
32	0x3dca6b26	0.09883718
33	0x3dfb89e1	0.12282158
34	0x3dc1d8ef	0.09465205
35	0xbd7f4dfb	-0.062330227
36	0xbca50d17	-0.020147843
37	0x3c876dd2	0.016531859
38	0x3d6d92af	0.058001217
39	0x3e791fd1	0.24328543
40	0xbe08fa0c	-0.13376635
41	0xbdd329cc	-0.103107065
42	0x3e015305	0.12629326
43	0x3a164a7d	0.00057331455
44	0x3e3ae499	0.18251266
45	0x3d9aa604	0.07551196
46	0xbdd62796	-0.10456769
47	0x3c0b6202	0.008507254
48	0x3deb1492	0.11478533
49	0x3e26acf7	0.16276918
50	0xbd6590cc	-0.056046292
51	0x3d9588d3	0.07301488
52	0xbde1c282	-0.110234275
53	0x3d7d7607	0.061880138
54	0xbd17bc58	-0.037044853
55	0x3d943ec6	0.072385356
56	0x3e5445ca	0.20729747
57	0x3e18f657	0.14937721
58	0x3de884ad	0.11353431
59	0x3cc3fe4f	0.023924975
60	0xbd94266e	-0.072338924
61	0x3bc863ca	0.0061154114
62	0x3db3f516	0.08786981
63	0x3dc8d099	0.09805412

fc3.weight f4 [64, 64]
0	0x3ddd56b8	0.10807556
1	0xbd88734c	-0.06662616
2	0xbe720b35	-0.23637088
3	0xbd90aac3	-0.0706382
4	0xbdcba288	-0.0994311
5	0x3db7a978	0.089678705
6	0x3d70436e	0.058658056
7	0xbc9ceea7	-0.019156767
8	0xbd142381	-0.03616667
9	0xbdaa80c8	-0.08325344
10	0xbcf420ca	-0.029800791
11	0x3d18e9f9	0.03733251
12	0xbc8c722b	-0.017144283
13	0xbe2998d9	-0.16562213
14	0x3d7ef064	0.062240973
15	0x3d2bfc33	0.041988563
16	0xbcbb436a	-0.022859294
17	0x3cbb273c	0.022845857
18	0xbeed3855	-0.4633204
19	0xbd6306c2	-0.055426367
20	0x3d690758	0.05689177
21	0x3a8f5572	0.0010935499
22	0xbdee7679	-0.116436906
23	0xbdf774e2	-0.120828405
24	0xbe1796ff	-0.14803694
25	0xbd8ec064	-0.06970289
26	0xbe25c1b6	-0.16187176
27	0xbe5646d9	-0.20925464
28	0xbdd898df	-0.10576033
29	0x3ce7262c	0.028216444
30	0xbeac4b84	-0.33651364
31	0xbcb0f4d2	-0.021601114
32	0x3ceb90ce	0.028755572
33	0xbc8fd1f1	-0.017556163
34	0xbe72d1b5	-0.2371281
35	0xbe59d8a9	-0.21274056
36	0x3d9d0cff	0.076684944
37	0xbd3d3a37	-0.046198096
38	0x3ce3be95	0.027800838
39	0x3d8252d1	0.06363452
40	0xbd8d4126	-0.06897192
41	0x3e1ba72c	0.1520049
42	0xbc7dfd99	-0.015502357
43	0x3e049963	0.12949137
44	0x3e0f671d	0.14004178
45	0x3e59464b	0.21218221
46	0x3c34ebd5	0.011042555
47	0x3d2d63e2	0.042331584
48	0xbbf75ff5	-0.0075492808
49	0xbec1f30d	-0.37880746
50	0xbe43b690	-0.19112611
51	0x3e6c8bae	0.23100159
52	0xbea100ea	-0.3144601
53	0xbecfcb23	-0.4058467
54	0xbd098b36	-0.033580028
55	0x3eb3b2ad	0.35097256
56	0xbe5025eb	-0.20326965
57	0xbde622f6	-0.11237137
58	0xbeb75f44	-0.3581487
59	0x3e0b7c51	0.13621642
60	0x3e5a09c9	0.21292795
61	0xbda385de	-0.079845175
62	0xbcaab162	-0.020836536
63	0x3e7b0131	0.24512173
64	0xbe35a8f1	-0.17740227
65	0xbda80877	-0.082047395
66	0xbe3b7d3d	-0.18309493
67	0xbe51b141	-0.20477773
68	0x3de02a77	0.109455995
69	0xbdb9f295	-0.09079472
70	0xbe5ad3e6	-0.21369895
71	0xbe85701d	-0.26062098
72	0xbca9ded2	-0.020736132
73	0xbe398590	-0.18117356
74	0x3e11a61b	0.1422352
75	0xbeab4933	-0.33454284
76	0xbde4a69a	-0.11164589
77	0xbe7fd3f7	-0.24983202
78	0x3e0d535c	0.1380133
79	0xbe5b5ce5	-0.21422155
80	0xbd97a46f	-0.0740441
81	0xbe4585ef	-0.19289373
82	0xbe004b2a	-0.12528673
83	0x3d708d84	0.05872871
84	0x3dbb5c16	0.091484234
85	0xbd9699d2	-0.07353558
86	0xbc3a5d9a	-0.011374855
87	0xbd1e5edd	-0.038664687
88	0xbd50ca4d	-0.05097418
89	0x3ecfdc46	0.40597743
90	0x3e1ceb42	0.15324119
91	0xbed4064e	-0.4141106
92	0xbd195786	-0.037436984
93	0x3d1ad2b4	0.0377986
94	0x3ebffbd4	0.37496817
95	0x3d006c6c	0.0313534
96	0x3d500e96	0.05079516
97	0x3d7afb75	0.061274964
98	0xbdcbe625	-0.09956006
99	0x3db542ac	0.08850607
100	0x3ebdb7a0	0.37054157
101	0xbec872eb	-0.39150175
102	0x3d73ce45	0.059522886
103	0xbd84479b	-0.0645897
104	0xbf08353b	-0.53206223
105	0x3e84d43f	0.2594318
106	0xbe0f429f	-0.13990258
107	0xbda65b3d	-0.08122871
108	0xbe25ddd1	-0.16197897
109	0xbd7bd3c7	-0.061481263
110	0x3e544259	0.20728435
111	0xbda45043	-0.08023121
112	0x3d679d4f	0.056546506
113	0xbd98dd8a	-0.0746413
114	0xbd94877f	-0.07252406
115	0xbdce9daa	-0.10088666
116	0x3ee09d94	0.43870223
117	0x3f002952	0.5006305
118	0xbd28aa74	-0.04117818
119	0x3d29bdd1	0.04144079
120	0x3e38d326	0.18049297
121	0xbcec7643	-0.028864985
122	0x3ea1213e	0.31470674
123	0xbe886b2b	-0.26644263
124	0x3e30f794	0.17281944
125	0xbcad356f	-0.021143643
126	0xbe20b261	-0.15693046
127	0x3da5ecc5	0.08101801
128	0xbe5d8b6e	-0.2163522
129	0x3de999c2	0.1140628
130	0xbdfd0103	-0.123537086
131	0xbd924d84	-0.07143691
132	0x3b9f3e8b	0.0048597506
133	0xbdc41dff	-0.09576034
134	0x3da1c494	0.078988224
135	0x3e1f7a28	0.15573943
136	0x3d828942	0.06373836
137	0xbdd64790	-0.10462868
138	0x3ea63b87	0.3246729
139	0xbca4fe1d	-0.020140702
140	0xbcceb674	-0.025233485
141	0xbecd0444	-0.40042317
142	0x3c67331a	0.014111305
143	0x3e7c7fb9	0.24658097
144	0xbe4319ee	-0.1905286
145	0xbc31c1b4	-0.010849405
146	0x3e43360b	0.19063585
147	0xbec252e5	-0.37953869
148	0xbe16ff3c	-0.14745802
149	0x3ea71757	0.32634994
150	0xbe10cfbe	-0.14141747
151	0xbc509e5d	-0.012733069
152	0xbdf2e4fa	-0.1186008
153	0x3d1e4368	0.038638502
154	0xbe01abc1	-0.12663175
155	0xbccf3a8d	-0.025296474
156	0xbebbd96c	-0.36689317
157	0xbe19d892	-0.15024021
158	0xbe521f49	-0.20519747
159	0xbc086337	-0.008324436
160	0x3ac5b9a2	0.001508523
161	0xbd68f41c	-0.056873426
162	0xbe858638	-0.26078963
163	0xbcf5aed3	-0.02999059
164	0x3bac7b8a	0.0052637504
165	0xba34936c	-0.00068884226
166	0x3e048a0a	0.12943283
167	0x3dbfd119	0.09366054
168	0x3e679f84	0.22619444
169	0xbe34f3c5	-0.17671116
170	0xbe888778	-0.26665854
171	0x3e6115c4	0.21980959
172	0xbe3bc99b	-0.18338625
173	0x3e072092	0.13196018
174	0x3d8f4c26	0.06996946
175	0x3e172d10	0.14763284
176	0xbd9ce4bb	-0.076608144
177	0xbed969f6	-0.42463654
178	0xbe909ec4	-0.2824613
179	0xbd67d2f1	-0.056597654
180	0xbe557892	-0.20846775
181	0x3e2f81ca	0.17139354
182	0xbd943037	-0.07235759
183	0xbd8eac42	-0.06966449
184	0xbdf6acaa	-0.12044652
185	0x3c01eb22	0.007929595
186	0x3ed5defa	0.4177168
187	0xbf6034dd	-0.8758066
188	0x3e20e118	0.15710866
189	0x3e060da1	0.13091137
190	0xbe62e0ce	-0.22156069
191	0x3dd89232	0.105747595
192	0xbe0de606	-0.13857278
193	0x3d350e5e	0.044203155
194	0xbed31c91	-0.41232732
195	0xbf19b775	-0.6004556
196	0x3dbcc620	0.09217477
197	0xbcd154ca	-0.025553126
198	0xbe8e1a77	-0.27754566
199	0xbe102d2c	-0.14079732
200	0xbe974264	-0.2954284
201	0xbe139b1c	-0.14414638
202	0x3e813909	0.25238827
203	0xbe91c4b9	-0.284704
204	0x3e588cb4	0.21147424
205	0xbdab1800	-0.08354187
206	0xbda8902e	-0.08230625
207	0x3dd444c6	0.1036468
208	0xbe52056b	-0.2050988
209	0xbe200012	-0.15625027
210	0xbec46669	-0.38359383
211	0xbee9dfa6	-0.45678443
212	0x3dfa9da9	0.122371025
213	0xbe331d1e	-0.17491576
214	0xbd087d13	-0.033322405
215	0x3dd333af	0.10312592
216	0x3d8d4dd0	0.06899607
217	0x3eb6f241	0.357317
218	0xbc516769	-0.012781003
219	0xbe5fc89d	-0.21853872
220	0xbe026b59	-0.12736262
221	0x3d6720a3	0.05642761
222	0x3e24eb0d	0.1610529
223	0x3ba31c4a	0.0049777376
224	0x3e44f975	0.19235785
225	0xbe0e4fa1	-0.13897564
226	0xbe210934	-0.15726167
227	0xbd7b19df	-0.06130397
228	0xbd1d6991	-0.038430754
229	0xbe1317ce	-0.1436455
230	0x3d501b2f	0.050807174
231	0x3da04d0e	0.07827197
232	0xbd804f81	-0.06265164
233	0x3ea82f8c	0.32848775
234	0x3b00e954	0.0019670324
235	0x3e0ff150	0.14056897
236	0xbc6e7e68	-0.014556505
237	0xbc885c3e	-0.016645547
238	0xbd9ee24a	-0.07758005
239	0xbe397aed	-0.18113299
240	0xbe39ed9b	-0.18157046
241	0xbd32801d	-0.04357921
242	0xbdbbbf6f	-0.091673724
243	0x3e9caae7	0.30599138
244	0x3e8be483	0.27322778
245	0x3ca914ad	0.020639742
246	0xbea90fae	-0.33019775
247	0xbd2a4d7c	-0.0415778
248	0x3dae9fa5	0.085265435
249	0x3d54b31c	0.051928625
250	0xbe8eb3b5	-0.2787148
251	0xbe9e1f2c	-0.30883157
252	0x3e0cf801	0.13766481
253	0xbe586418	-0.21131933
254	0x3bc0069a	0.005860162
255	0x3e38188e	0.17978117

fc3.bias f4 [64]
0	0x3e32ed64	0.1747337
1	0x3dc1f579	0.09470648
2	0x3c57b761	0.0131662795
3	0x3e2d983f	0.16952609
4	0x3ee52e47	0.4476187
5	0xbe9f1ad5	-0.3107516
6	0x3db14c8a	0.08657177
7	0xbdb2fc60	-0.08739543
8	0xbcafae47	-0.021445407
9	0x3eb1fb2c	0.3476194
10	0x3d448a3c	0.047983393
11	0x3e2d7cb2	0.16942099
12	0xbe226925	-0.15860422
13	0x3f0c1afe	0.54728687
14	0x3ef9a684	0.48759854
15	0xbd490e44	-0.04908587
16	0x3d27732f	0.040881332
17	0x3e26801b	0.16259806
18	0xbe347957	-0.17624412
19	0x3daf0574	0.08545962
20	0x3e41ac9a	0.18913499
21	0x3d469969	0.048486147
22	0x3e006272	0.12537554
23	0x3df58a71	0.11989296
24	0xbd140ee6	-0.03614702
25	0xbd0ce1a0	-0.03439486
26	0x3e0defe8	0.13861048
27	0x3e710048	0.23535264
28	0x3ddaee21	0.10689951
29	0x3e44f63c	0.19234556
30	0x3ed4b30f	0.4154286
31	0x3ec79183	0.38978204
32	0xbd3b3210	-0.04570204
33	0xbc6ff395	-0.014645477
34	0x3de71170	0.11282623
35	0x3eb4e185	0.35328308
36	0xbe0e6bbf	-0.1390829
37	0x3e06eff9	0.1317748
38	0x3f0b8255	0.54495746
39	0x3d6194a5	0.0550734
40	0xbdb12774	-0.08650103
41	0xbdb21fc8	-0.08697468
42	0xbe110231	-0.14160992
43	0xbc6051ae	-0.013691349
44	0xbe0291a0	-0.12750864
45	0x3d41284d	0.047157574
46	0x3ecf2948	0.40461183
47	0x3d35cfee	0.04438775
48	0x3d9e67b1	0.07734621
49	0x3dd51671	0.10404671
50	0x3f0c26fc	0.54746985
51	0x3cfecb67	0.03110285
52	0xbd9184d6	-0.071054146
53	0xbe68332a	-0.22675768
54	0x3d4755d2	0.04866583
55	0xbcd4511b	-0.02591758
56	0xbd9c1cb2	-0.07622661
57	0x3dceaeb5	0.100919165
58	0x3efe25b1	0.4963813
59	0xbe0893c4	-0.13337618
60	0x3df9ea8e	0.12202941
61	0x3df06aca	0.117391184
62	0x3e0b5553	0.13606767
63	0x3da868e1	0.08223129

fc4.weight f4 [4, 64]
0	0x3de1b396	0.110205814
1	0x3ea53bdd	0.32272235
2	0xbeffb389	-0.49941662
3	0xbc06565d	-0.008199302
4	0x3e4671be	0.19379327
5	0xbe7dec5f	-0.247972
6	0x3eb8c871	0.36090425
7	0xbdf8523c	-0.1212506
8	0xbe328193	-0.17432241
9	0x3e95d47e	0.2926368
10	0x3e81f957	0.25385544
11	0x3e16038b	0.14649789
12	0xbc08f86f	-0.008360012
13	0x3e48ad89	0.19597448
14	0x3e1c3837	0.1525582
15	0xbd90c6a1	-0.070691355
16	0x3e97410e	0.2954182
17	0x3de214f8	0.11039156
18	0xbe0a2622	-0.13491109
19	0x3d0eb423	0.03483976
20	0x3dd8a662	0.1057861
21	0xbf02a805	-0.5103763
22	0x3e77afee	0.24188206
23	0x3e11efd3	0.14251642
24	0xbecde0eb	-0.4021066
25	0x3e154c27	0.14579831
26	0x3d6375e4	0.05553235
27	0x3e675029	0.22589172
28	0x3ea0e48c	0.31424367
29	0x3db4c1a8	0.088259995
30	0x3dc89902	0.09794809
31	0x3e0bc5b4	0.13649637
32	0x3df8f0dc	0.12155315
33	0x3ec689c2	0.38776976
34	0xbf047cdc	-0.5175302
35	0x3e11604e	0.14196894
36	0x3e44dc3e	0.1922464
37	0x3e67d600	0.22640228
38	0x3e84b979	0.25922754
39	0x3e8d63a4	0.27615082
40	0x3d28e106	0.041230224
41	0x3de1efc8	0.11032063
42	0xbe9dcb83	-0.3081933
43	0x3e6b73c3	0.22993378
44	0xbcd1d6bb	-0.025615087
45	0x3c0c9bf8	0.008582108
46	0x3e204453	0.15651064
47	0x3cb6738a	0.02227189
48	0xbe7d70fe	-0.24750134
49	0x3e33d171	0.17560364
50	0x3e81b51d	0.2533349
51	0x3e1e2005	0.15441902
52	0xbd851de7	-0.06499844
53	0xbe660e6f	-0.22466443
54	0x3e8214fa	0.2540663
55	0x3e9976bb	0.29973397
56	0x3e44390b	0.19162385
57	0x3db8251a	0.089914516
58	0x3e814493	0.2524763
59	0xbd3ed593	-0.0465904
60	0xbf099c0f	-0.5375375
61	0x3e11a390	0.1422255
62	0x3e904d50	0.28183985
63	0xbefbb2e1	-0.4915991
64	0x3da7c468	0.081917584
65	0x3e71ed4f	0.23625682
66	0xbe5c65ed	-0.21523257
67	0x3de3bb2d	0.11119685
68	0x3e0d957b	0.13826554
69	0xbe907b5c	-0.28219116
70	0x3edb5f21	0.42846015
71	0xbcdac674	-0.026705958
72	0xbe849565	-0.2589523
73	0x3e39f414	0.18159515
74	0x3e848979	0.25886133
75	0x3e188091	0.14892794
76	0xbd8beea0	-0.068326235
77	0x3e892c27	0.26791498
78	0x3e3f9539	0.18709268
79	0x3e094e2a	0.13408723
80	0x3e7db59e	0.24776313
81	0x3e4371e6	0.19086418
82	0x3e14590f	0.14487098
83	0x3ec563c9	0.38552693
84	0x3de06d5f	0.10958361
85	0xbe1068d3	-0.14102487
86	0x3dcc976b	0.09989818
87	0x3e8542fa	0.26027662
88	0xbd7d6b7f	-0.061870094
89	0x3da4135d	0.08011506
90	0x3e8adca1	0.27121451
91	0x3e7912d6	0.24323592
92	0x3e84ac85	0.25912872
93	0xbde48fab	-0.11160215
94	0x3e307562	0.17232278
95	0x3dcfb837	0.10142558
96	0xbdf6c39c	-0.12049028
97	0x3ec3b238	0.38221908
98	0xbe607c85	-0.219225
99	0x3e57afbd	0.21063133
100	0xbe595b58	-0.21226251
101	0x3e13303b	0.14373867
102	0x3e80e368	0.25173497
103	0x3eac8c16	0.33700627
104	0x3da78755	0.081801094
105	0xbee8d536	-0.45475167
106	0xbd8266fd	-0.063673
107	0xbeedea5c	-0.46467865
108	0xbe09f953	-0.13474016
109	0x3e09e0a9	0.13464607
110	0x3e462898	0.19351423
111	0x3f12fe5b	0.57419366
112	0x3e23bbea	0.15989652
113	0x3e62690d	0.22110386
114	0x3e72e5a8	0.2372042
115	0x3d82bebc	0.06384036
116	0x3dbe4842	0.09291126
117	0x3cd6cac7	0.026219739
118	0x3e9421bc	0.28931987
119	0xbe16ca7a	-0.14725676
120	0x3e4e2118	0.20129812
121	0x3ed82068	0.42212224
122	0x3e1de7f0	0.15420508
123	0xbb226962	-0.0024782051
124	0x3ea1f65e	0.31633276
125	0x3e02c970	0.12772155
126	0x3c8b672e	0.017016973
127	0xbe9660fb	-0.29370865
128	0x3e5938d8	0.2121309
129	0x3da1744a	0.078835085
130	0x3e8d92af	0.27650973
131	0x3eb5ec5a	0.35531884
132	0x3ddea9cc	0.1087223
133	0xbece1296	-0.40248555
134	0xbe8db75e	-0.2767896
135	0xbe8b0744	-0.2715398
136	0xbe76f072	-0.2411516
137	0x3e9620ed	0.29321995
138	0x3e7def8b	0.2479841
139	0x3def7a9f	0.1169331
140	0xbdb23aac	-0.08702597
141	0x3e4da77a	0.20083418
142	0x3e06c5ca	0.13161388
143	0x3ed2ffec	0.41210878
144	0x3e877d24	0.26462662
145	0x3e7a16cd	0.2442276
146	0x3e5347d1	0.20632865
147	0xbe0d97c4	-0.13827425
148	0xbb1ae68b	-0.002363595
149	0xbea1706f	-0.31531093
150	0x3e1646fc	0.14675516
151	0xbd05a85b	-0.03263126
152	0xbe91a501	-0.284462
153	0x3e791396	0.24323878
154	0x3e8c514e	0.2740578
155	0x3e914f14	0.28380644
156	0x3e3a7032	0.18206862
157	0x3d4f7803	0.05065156
158	0x3e61bd6b	0.22044913
159	0x3e45b8c1	0.1930876
160	0xbd33986e	-0.04384654
161	0x3d97951c	0.07401487
162	0xbea0b869	-0.31390694
163	0x3ddb1885	0.10698036
164	0xbd809968	-0.0627926
165	0x3df5a576	0.1199445
166	0x3e42ad07	0.19011317
167	0xbe868610	-0.26274157
168	0x3dd1973e	0.10233925
169	0x3e6380af	0.22217058
170	0xbe6142fa	-0.21998206
171	0xbc367bc1	-0.011137904
172	0x3ec57057	0.3856227
173	0x3e64f9be	0.22360894
174	0x3e140627	0.14455472
175	0xbdb59d37	-0.08867877
176	0x3d9985a5	0.07496194
177	0x3e3e7dde	0.18602702
178	0x3e8c3e71	0.2739139
179	0x3db2df2a	0.087339714
180	0x3e3f104e	0.18658563
181	0xbe3c4645	-0.1838618
182	0x3d4d2c0f	0.050090846
183	0x3edf8d35	0.4366242
184	0xbde23782	-0.110457435
185	0x3ece010b	0.4023517
186	0x3e8f64de	0.28006643
187	0xbd64dbff	-0.055873867
188	0x3c3c9399	0.011509799
189	0xbd8d5a83	-0.06902029
190	0x3ea1f062	0.3162871
191	0xbef60ac0	-0.48055077
192	0x3dc5e3d8	0.09662598
193	0x3e73e836	0.2381905
194	0xbd78d753	-0.060752224
195	0x3cb6c768	0.022311881
196	0x3e873200	0.26405334
197	0xbd7f0063	-0.06225623
198	0xbe23de63	-0.16002803
199	0xbea706e2	-0.3262244
200	0x3ebfb14b	0.3743995
201	0x3e678d9b	0.22612612
202	0x3e6e3e58	0.2326597
203	0xbd048ce5	-0.03236093
204	0x3cfb6bea	0.030691106
205	0x3e52abc9	0.20573343
206	0x3e676f8d	0.22601147
207	0xbdc15923	-0.094408296
208	0xbe8595ce	-0.26090854
209	0x3eaecc62	0.34140307
210	0x3db2b0e1	0.08725143
211	0x3f1aeacc	0.6051452
212	0x3de0b533	0.10972061
213	0xbdb52338	-0.08844608
214	0x3dd8ac35	0.10579721
215	0xbd16c245	-0.036806364
216	0xbf63c9e4	-0.88979936
217	0x3e60ff1f	0.21972321
218	0x3e5216f1	0.20516564
219	0x3e1a46ed	0.15066119
220	0x3d852585	0.06501297
221	0x3e31628b	0.17322747
222	0x3e69c1c3	0.2282782
223	0x3e452785	0.19253357
224	0xbd5ec500	-0.054387093
225	0x3ed4b5c1	0.41544917
226	0xbeb4974d	-0.35271683
227	0x3e0eea5d	0.1395659
228	0xbebcb287	-0.36854956
229	0x3e29045e	0.16505572
230	0x3e515d99	0.20445861
231	0x3f14e2a6	0.5815834
232	0xbd3dbaa1	-0.04632056
233	0xbd8ef08f	-0.06979477
234	0x3dde87e8	0.10865766
235	0x3ef3fc56	0.47653455
236	0xbed93575	-0.42423597
237	0x3e7af937	0.2450913
238	0x3e5db5ef	0.21651433
239	0xbf1b3ac2	-0.6063653
240	0x3e4a336e	0.19746181
241	0x3df9d9ad	0.121997215
242	0x3e527524	0.20552498
243	0x3e8a1ad7	0.26973602
244	0x3e6d4965	0.23172529
245	0xbeed013a	-0.46289998
246	0x3ea05d69	0.31321266
247	0xbe3c5cad	-0.18394728
248	0x3f1b205f	0.6059627
249	0x3dd04d7e	0.101710305
250	0x3e069ab9	0.1314496
251	0xbd515f85	-0.051116485
252	0xbcb7cc13	-0.022436177
253	0x3e1aef29	0.15130295
254	0x3da5ff66	0.08105354
255	0xbebecde5	-0.3726646

fc4.bias f4 [4]
0	0x3ecaf8fc	0.39643085
1	0x3ea1857f	0.31547162
2	0x3ea9cddc	0.3316487
3	0x3e9471df	0.28993127
