model.pth (torch_old, 45210 bytes, 8 tensors)

fc1.weight f4 [64, 37]
00000000: 9e32 b1bc 1006 943d 6558 ad3d 4524 813d
00000010: cd93 263e 10fb 833e 7aa3 26be c1de 12bd
00000020: 2a6c 97be 53f2 a3bf 1170 10bc b429 403d
00000030: 6840 30bb a0ee 5a3e 8ff0 7c3e 49a4 b4ba
00000040: 28b6 ab3d 2f8b c0bc 8e75 2a3c 69be 223e
00000050: 1901 9fbd b8c7 abbb 8058 193d 2b5d 583d
00000060: 22b2 b93d 5ef1 1b3d 47b5 913c 24fa 17bc
00000070: 0cc6 673a 2d09 e5bd c0d1 b2bd b89e f4bd
00000080: 5b8d 933d acab b53d 06ad b53d 9f47 2cbc
00000090: 0852 593a 3252 e4bb 22e1 b1bd d3c3 58bd
000000a0: ea12 29be 211e e5bd f40f 7bbd a00f 64be
000000b0: 00b4 833e 6bd1 c33e 5999 373f 59e2 29bd
000000c0: c0b5 30bd b1b8 373b c4c5 f73d c43a 923d
000000d0: aa17 a63c 102a 213d 93a6 debd 08b6 053e
000000e0: f749 d63e e65c 123e 26df ddbb 1bba b23c
000000f0: 1e63 483c b88e 01bc 47d5 39bd 42c2 3e3e
00000100: 8ecb e13d ee9f 08bd 91f8 c53d 02bc 61be
00000110: 7c15 3fbe 4e82 2ebd 05ad 003e d379 1b3f
00000120: 3e79 a73c 5b82 933b aded 18be cceb 1dbd
00000130: 946c 023e a4a8 82bd c044 8d3c 834a cfbd
00000140: a690 d33d ba91 40be 9a70 31bc c4b2 d83b
00000150: 8f6c 0cbd 5d75 d3bd 971b 603d 128d 263e
00000160: 12af b13d cd76 dcbc 0825 89bd 9583 9cbc
00000170: f0d6 4ebc cd87 173c cefb b83e 7f11 08be
00000180: 6ef7 c4be f21c d9be 70c5 78bf dab6 b1bd
00000190: 12be bbbd 506c 0dbe 0eed 2b3e 94b3 a03e
000001a0: 4bad a83d 4335 a2bd 392f b93d e8d9 d43d
000001b0: 60eb 9abd e348 993d 2f25 1c3d 74cf e33c
000001c0: d657 01be a975 eebd 52b5 0b3d 1c17 61be
000001d0: 1a38 163e 946e ae3d cacf 533d dec9 6fbe
000001e0: a9ee af3d f6ed 213d da7b e5bc ac1d 4dbd
000001f0: de60 2f3e 2d0e c93c 818d 73bd 0833 da3d
00000200: f9dd b1bd 83bc eabd c248 a0bd cc80 053e
00000210: 68c6 3fbd 7566 8ebe 972d 20be cbf6 55be
00000220: bbe9 303e c23c 29bd ad7b febc facc a0bd
00000230: b056 07bf 5fce 123c be6b 8f3d 1be7 8a3e
00000240: 5f54 a3bd 314f 203f 094c 8ebb 1976 c4bb
00000250: c977 1c3d bcea 3dbc 68e3 ad3d 6a16 cfbe
00000260: 778c b3be 269f 7ebd 43bc 4ebe 03be 3cbd
00000270: d5ea 1bbe bbd8 0fbe 8454 d23d e022 2b3d
00000280: ac49 9bbe 3a70 843c b504 df3d b59c ddbd
00000290: 8e5c 6bbd ba7e ab3d e3a4 71be 0397 8b3e
000002a0: b8d5 a7bc 1232 b5be 84bc 93bd 8450 51be
000002b0: 4f92 13bc 83ec 23be 04fd 1cbe 23d3 edbd
000002c0: 03ef 813d b9b0 263d 423f 8cbd 4fe9 c8be
000002d0: acfb 8e3e ae69 38be 1e14 24be 10d8 8bbc
000002e0: 4939 11be db05 abbe dbf9 423e 1375 863d
000002f0: 5699 473e 0906 89bd 3c91 973e e99a 27bf
00000300: 6a2a c8bd 5f55 9cbe 8a3f 4cbf 775d 4bbc
00000310: 8c15 1b3d 750f 54be c852 d53d 7a44 5d3e
00000320: 4e5a 84be 1db5 80bd 32d9 f4bc ffb8 adbd
00000330: 0374 1dbc b759 063e 7187 04bd 54d7 e6bd
00000340: 6536 0f3e 94b1 99be d773 69be 9a55 ecbd
00000350: 2e73 1f3e ffab ebbc 5008 d03d a107 af3d
00000360: caed 623e 105a 68bc 122e 74bd f3bd 25be
00000370: 2c03 abbd 1a14 f9bc 80a8 1e3e f113 c53d
00000380: 0bc2 063e 3dc4 ed3d 263f f7bc 793c 083f
00000390: 9ffb 4bbf f518 f9be 10be 27bf 091d 18c0
000003a0: 41da 573b 4b2e d43d 607d 833d 6c20 8f3d
000003b0: d687 453d 57f8 a13c ff4e 1bbc 4150 07bc
000003c0: 70d6 c13c 4aae 92bc 735b 4c3d 5bd6 803d
000003d0: 4395 7c3d 8f05 b13d c653 963d cfac a83c
000003e0: bdd3 d43d b396 9b3d a478 7abc 4c67 923d
000003f0: 1405 b03c 53d3 15bc 445d 993d a83a 863d
-0.021630581 0.07227719 0.084641255 0.06305746 0.16267319 0.25777483 -0.16273299 -0.035856966
-0.2957471 -1.2808326 -0.008815781 0.04691477 -0.0026893858 0.2138009 0.24701141 -0.0013781871
0.08384353 -0.023503868 0.010404004 0.15892948 -0.07763881 -0.005242314 0.037437916 0.052823227
0.09067179 0.038071983 0.017786635 -0.009275947 0.0008841462 -0.11183391 -0.08731413 -0.11944336
0.07204696 0.088706344 0.08870892 -0.010515123 0.00082901167 -0.0069678063 -0.08685519 -0.052921128
-0.16511121 -0.11187387 -0.06129451 -0.22271585 0.25723267 0.3824571 0.71718365 -0.041475628
-0.04314208 0.0028033669 0.12098268 0.07140115 0.020274956 0.039346755 -0.10871615 0.1305772
0.41853306 0.1429325 -0.006770986 0.021817258 0.012230663 -0.007907562 -0.045369413 0.18628791
0.11025153 -0.033355646 0.09666551 -0.22044376 -0.1866054 -0.042604737 0.12566002 0.60732764
0.020443555 0.0045016236 -0.14934416 -0.03855495 0.12736732 -0.06379822 0.017244697 -0.10121634
0.10330324 -0.1880559 -0.010830069 0.0066131074 -0.034283217 -0.1032512 0.05471381 0.16264752
0.0867597 -0.026912117 -0.06696516 -0.019105712 -0.012624487 0.009248686 0.36129612 -0.13287924
-0.38470024 -0.42404896 -0.97176266 -0.08677454 -0.091671124 -0.13810849 0.16789648 0.31387007
0.08236178 -0.07920315 0.0904221 0.10393125 -0.075644255 0.07484605 0.0381214 0.027808882
-0.12631163 -0.11643536 0.034108467 -0.21981472 0.14669839 0.08517185 0.051711835 -0.2341685
0.08590443 0.039533578 -0.028013159 -0.050077125 0.17126796 0.024542892 -0.05946112 0.10654265
-0.08684916 -0.11461737 -0.078263775 0.13037413 -0.046820074 -0.27812544 -0.15642391 -0.20894925
0.17276661 -0.04131771 -0.031064833 -0.07851596 -0.5286665 0.0089603355 0.07002972 0.27129444
-0.07975077 0.62620836 -0.00434256 -0.0059955237 0.038200174 -0.01159161 0.0849064 -0.40446788
-0.35068104 -0.062163495 -0.20189004 -0.046079647 -0.152263 -0.1404752 0.10270026 0.041781306
-0.30329645 0.016166795 0.1088957 -0.10820905 -0.057461314 0.083737805 -0.23598056 0.2726365
-0.020487651 -0.35389763 -0.07213691 -0.2044087 -0.009007051 -0.16008191 -0.15330893 -0.11612537
0.06344416 0.04069588 -0.06848003 -0.392405 0.27926385 -0.18009064 -0.16023299 -0.0170708
-0.14182009 -0.33402905 0.19040625 0.06565299 0.19492087 -0.06690604 0.29602993 -0.6547075
-0.09773715 -0.30533883 -0.7978445 -0.0124124205 0.037862346 -0.20709021 0.1041618 0.21608153
-0.25850147 -0.062845446 -0.029888723 -0.08482551 -0.009610179 0.13120161 -0.03235573 -0.11271539
0.13985594 -0.30018294 -0.22798096 -0.11539765 0.15571281 -0.028768538 0.101578355 0.08546377
0.22161022 -0.014181629 -0.05961425 -0.16185741 -0.08350214 -0.030405093 0.15493965 0.09622944
0.13159959 0.11609695 -0.030181479 0.53217274 -0.7968082 -0.48651853 -0.6552439 -2.3767722
0.0032936486 0.10360392 0.06420398 0.06988606 0.048225246 0.019771738 -0.009479283 -0.00825888
0.023661822 -0.017905373 0.0498919 0.06290885 0.061665785 0.08643638 0.07340197 0.020590214
0.10391948 0.07597103 -0.015287552 0.071486086 0.021486796 -0.009144622 0.07488492 0.065541565

fc1.bias f4 [64]
00000000: 6487 0c3e 55f7 4abd e2d5 6f3d 3374 0dbc
00000010: 0e44 23be c0f5 3a3d 0a3c 313e 18e4 b23d
00000020: 51b2 30be 1c1c 053e 1540 c33c 8ec7 193e
00000030: 83d9 533e c64b 953d d5d3 683d 3d0c 33bc
00000040: 49e1 a4bd 23e1 cbbd 4e01 0c3c 99d4 45bd
00000050: 7a74 50be 02de 643d bed0 3cbe 59ff c4bc
00000060: 0281 0cbe c57d 433d cc2d b83d 9825 853e
00000070: 9990 88bd 7bef 3f3e 178c 483e 7654 fe3b
00000080: 1d8d f4bd 6def 853d 65c3 17be b9c4 37bd
00000090: 2933 f43d 94dd 0bbe d739 f43a 96dc c93d
000000a0: 6f32 983d 94b3 1c3c fcf5 093e dbc6 dcbd
000000b0: 5d87 2f3d 65e8 993b 0f90 b3bd 75e8 01be
000000c0: ec2a cebc b3b9 10bd e8f5 1cbe 3a6e 873c
000000d0: ba2a df3d 1486 753c 9351 15be dc90 27bd
000000e0: e472 f4bc bd2a f13c 62c8 fa3d 99ea 093e
000000f0: c8c2 f1bd ccc0 f4bb c95d 353e 1e13 82be
0.13723522 -0.04955228 0.058553584 -0.008633661 -0.1594393 0.04564452 0.1730806 0.08734912
-0.17255522 0.12999004 0.023834268 0.1501753 0.20688443 0.07289843 0.056842644 -0.010928211
-0.08050782 -0.09955051 0.008545233 -0.048298452 -0.20356932 0.055875786 -0.18439004 -0.02404754
-0.13721088 0.047727365 0.0899311 0.26005244 -0.06668205 0.18743698 0.1958469 0.0077615334
-0.11940978 0.065398075 -0.14820631 -0.044865344 0.119238205 -0.13658744 0.001863296 0.098565266
0.074314944 0.009564299 0.13472742 -0.10780116 0.0428537 0.004696893 -0.08767711 -0.12686332
-0.025166951 -0.035333347 -0.15328181 0.016532052 0.10896821 0.01498558 -0.145819 -0.040909633
-0.02983994 0.029439325 0.12245251 0.13468398 -0.1180473 -0.0074692722 0.17711557 -0.2540521

fc2.weight f4 [64, 64]
00000000: d618 a4bd fd22 443b acda a13d 0a77 8ebe
00000010: 12cd e33d 860d 003e 3f07 52be 9ccc 95bd
00000020: 6713 15be 1e4c 04be b322 d93c 1faf c03e
00000030: 78bf 0ebe 8d02 90bc 0194 13bd f83d fe3a
00000040: bc01 88bc 964c e03c df9e 2c3b 853f dfbb
00000050: 8cf1 d9bb a26f d13d b689 923e 6e2e 8b3e
00000060: f278 153e 634e d33d 01de babe 8d22 a33d
00000070: 5d61 f63c 96ab 483d 9e3f 823b b0df 42be
00000080: 8721 1dbc 9ad9 6d3d 3dbc 03be ed57 a7bd
00000090: 5f5e eb3d 676a 2bbe 9a58 5c3d c99b 24be
000000a0: c7ab 383e 2062 10bc cafc 983e 3558 2ebe
000000b0: c508 44be 24f7 513e b6c8 573e 26b2 173e
000000c0: 09a6 24be 165d 78be 5f96 7cbd 49cd c23d
000000d0: 898c 0e3d 58f5 0e3d 7182 59be 0d55 30be
000000e0: 64f9 ba3d 5580 073e 0eb0 cdbd cf5d 1bbe
000000f0: 94a5 ac3d 6e4c 8d3d 3b59 083e 0e04 343e
00000100: d22e 35bd 0e3d 86be 25c5 80be 16f2 21be
00000110: 301b 4c3e 4207 aebe 6caf 8abc 8b48 26be
00000120: 412a 33be 8ce0 8c3b d206 203d b822 1a3e
00000130: 8308 1a3d e91e 1fbd b99b 6ebd 0b5c 14bf
00000140: 81bc ae3d 29de 2cbd 15d3 813d 4ca9 2cbe
00000150: 4b1c c8bd 2058 273e 32c3 01be c2f2 95bb
00000160: d921 bfbe d0d3 983d 87d2 863e 0849 01be
00000170: 3526 1dbd a5e6 173d d1f0 393e f404 c1be
00000180: 034a a43d 7cd7 33bd fe1a 0ebe 8d2b 7c3d
00000190: ccc6 7ebe 8aac 013c 7e19 433e 916b 253d
000001a0: 146d 203d 12f0 6c3e a280 c93d d556 7fbe
000001b0: 9f9b 263e 1710 6f3e bc93 8bbc 3d8d 71bd
000001c0: d6be 7b3e 20d7 b4bc 0880 15be f64a a5be
000001d0: dae2 c7be 9af7 7b3e 9d9e a8bd 1589 30be
000001e0: 6709 cf3d 1010 843e e585 b0bd 07b2 68be
000001f0: cc80 97bd 423e 1bbf 5f66 10be 738c 8bbe
00000200: 05f3 97bd 7566 31bd 1f7c c9bd ac4f c6be
00000210: 2a77 87bd d7a0 003c ef25 d5ba 3a9a 93bd
00000220: 0339 b5be 0420 823e f1f0 5bbe 0055 d1bd
00000230: e8df 913d 3df7 ca3d 0c55 553e f1c6 ac3c
00000240: d4ce cabe 763b 50be 9b49 22be e7b6 ba3d
00000250: 0b89 b2be c8b8 8ebc ebd4 8b3d cb2c 4dbd
00000260: fb04 27be f78d fd3c 1415 063e f824 df3d
00000270: 9a27 4fbe f390 853e 5927 b7be 11b1 753d
00000280: 4156 1a3e 9973 98be c9b8 bfbd 0375 70be
00000290: ba0e a6bc cc7b 49be 1cc3 b23d 15d4 153e
000002a0: 17cb 07bd e8a9 a33d fa02 1a3e 3bf1 3fbe
000002b0: 069b c73d 817d 423e b757 80be 0f8e 4bbe
000002c0: 0f1e 9a3c dcd4 b8bd d858 76be 5983 38be
000002d0: a77a f8bc af28 f63d 2016 883e da31 2dbb
000002e0: aec0 403e 13bd 11bf d75e 203d c49d 97be
000002f0: 9120 8c3e b483 813c 4f71 90bd 76e3 953d
00000300: 2ddd 94bd bf62 97bd 9c53 2abe dc53 dc3d
00000310: aa85 01bd c7ca 183c 58f8 5dbe 9391 ee3d
00000320: af5e 553c 753d 813e 3381 4bbc 3cfd 1d3d
00000330: 0622 8fbd 4e35 f8be 0f9d 2b3b 924d 31be
00000340: e630 e83d ad64 1dbe 38ac 1cbe 01be 24bd
00000350: 1d62 253d cd67 7fbd bdec 7d3e f193 d13d
00000360: b712 a9bd 4a66 5d3d 072e 9f3d c490 e2be
00000370: 0503 0bbc be84 bebd f5f7 b1be a235 213d
00000380: 6c08 153d 8c3b 8cbe 8592 453e 1acd 3fbd
00000390: 8c36 533e d208 00bd efeb c7bd 4229 80be
000003a0: f501 c6be 4faa 453d 15df 27be 9fca 653d
000003b0: ab47 f5bd 38f3 53bc 54bd 283e 6941 cb3d
000003c0: 4fdb e6bd 3dff 00be a553 96bc cbf3 19bc
000003d0: 70db 01be 35db 28be b454 15be ea79 91be
000003e0: 1caf 6c3e ee04 58bd 366a c63c fa6a 6f3c
000003f0: b00a c03d 4238 4ebd 2441 873c d242 373e
-0.080125496 0.0029928081 0.079030365 -0.27825195 0.111230984 0.12505159 -0.20510577 -0.07314417
-0.14558183 -0.12919661 0.026505804 0.37633607 -0.13940227 -0.017579341 -0.03602982 0.001939713
-0.01660239 0.027380269 0.0026339812 -0.006812992 -0.006651109 0.102263704 0.2862069 0.2718386
0.14596918 0.103176855 -0.364975 0.079655744 0.030075723 0.048991762 0.003974869 -0.19030643
-0.009590513 0.05806885 -0.12864776 -0.081710674 0.11492609 -0.16739808 0.053795435 -0.16075052
0.18034278 -0.008812457 0.29880363 -0.17025836 -0.1914397 0.20504433 0.21072659 0.14814052
-0.16078962 -0.2425426 -0.061666843 0.09511811 0.034801994 0.034901947 -0.21241166 -0.17219944
0.09129599 0.13232549 -0.100433454 -0.15172504 0.08430019 0.068993434 0.13315289 0.17579672
-0.044234104 -0.26218456 -0.2515041 -0.15815005 0.19932246 -0.33989912 -0.01692935 -0.1623861
-0.17496587 0.004299229 0.039069004 0.15052307 0.037605774 -0.038847838 -0.058253977 -0.57952946
0.08532048 -0.042204056 0.06339089 -0.16861457 -0.097710215 0.16342211 -0.12672117 -0.004576058
-0.3733051 0.07462275 0.26332495 -0.12625515 -0.038366515 0.037085194 0.1815827 -0.3769909
0.08021929 -0.043906674 -0.13877484 0.06156497 -0.24880522 0.007914672 0.19052693 0.040385786
0.039166525 0.23138455 0.09838988 -0.24935468 0.16270302 0.23345982 -0.017038219 -0.058972586
0.24584517 -0.022075236 -0.14599621 -0.32283753 -0.39040262 0.24606171 -0.08233378 -0.17239793
0.10109215 0.25793505 -0.08619288 -0.22724162 -0.07397613 -0.6064187 -0.14101551 -0.27255592
-0.07419399 -0.0433106 -0.09838127 -0.3873266 -0.066145256 0.007850847 -0.0016261915 -0.07207151
-0.3539506 0.2541505 -0.2147863 -0.102212906 0.07122785 0.09910438 0.20833224 0.021090956
-0.39610922 -0.20335183 -0.15848391 0.09116917 -0.3487018 -0.017422095 0.0682772 -0.050091546
-0.16310494 0.030951483 0.13093978 0.10895723 -0.2022995 0.2608715 -0.35772207 0.059983317
0.15071966 -0.29775694 -0.09361417 -0.23482136 -0.020270694 -0.19676131 0.087286204 0.14631684
-0.033152666 0.079913914 0.15040198 -0.18744366 0.09746365 0.18993188 -0.2506692 -0.1987841
0.018813161 -0.09024975 -0.24057329 -0.18018855 -0.030331923 0.120194785 0.2657938 -0.002642742
0.18823501 -0.5692913 0.039152946 -0.29612553 0.27368596 0.015809871 -0.07052862 0.07318775
-0.072687484 -0.07391881 -0.16633457 0.107581824 -0.031621613 0.00932569 -0.21676767 0.1164886
0.013023063 0.252422 -0.01242094 0.03857158 -0.06988911 -0.48478168 0.0026186144 -0.17314747
0.11337452 -0.15370436 -0.15300071 -0.040220264 0.04037677 -0.06235485 0.2479734 0.10233296
-0.08255523 0.05405263 0.07772451 -0.44251072 -0.008484607 -0.09302662 -0.3475949 0.03935779
0.036384985 -0.2738918 0.19294174 -0.04682646 0.20626277 -0.03125841 -0.09761798 -0.25031477
-0.38673368 0.048258122 -0.16393693 0.056101438 -0.1197656 -0.012936406 0.16478473 0.09924585
-0.112722985 -0.12597366 -0.018350432 -0.009396504 -0.12681365 -0.16489871 -0.14583093 -0.28413326
0.23113674 -0.052739076 0.024220567 0.014612908 0.093770385 -0.05034662 0.016510554 0.17896584

fc2.bias f4 [64]
00000000: 46c1 803c 4031 bc3d cda6 933d 4525 5b3e
00000010: e076 b7bc a251 1bbc 9e81 61bd 3e2b f83c
00000020: 069f 93bc 25a8 dc3d bf2e 7f3c 7322 f7bd
00000030: f87e 6abd 7895 243c 63a6 bb3d 4bd9 223b
00000040: c85c 8c3d 20a3 1d3e ecbb 0f3e 57d8 a33d
00000050: e724 41bd 0044 c5bb 7609 3fbe 3672 dfbd
00000060: c8e1 58bb b295 0f3c e4a0 e2bd cb4c e8bd
00000070: 7368 04bd 6b5e abbd 4df7 cebd d320 9abd
00000080: ba60 d83d ccf5 ec3d dbc7 c83d cb38 95bd
00000090: 7ba7 c4bc 1abc 9e3c d1db 563d bb97 803e
000000a0: c629 11be 6617 e6bd f6cb 013e ad4c 3f3c
000000b0: 4c1b 3a3e ee6c 733d ec75 debd d508 773b
000000c0: 1afa ed3d 396a 223e 71cb 82bd 625e 7f3d
000000d0: b5f8 d7bd 4bf6 813d a06a 3abd 077f 8e3d
000000e0: a4ea 4c3e 86a7 153e afe2 eb3d ce50 a63c
000000f0: 1133 aebd 15aa 3cbc a624 b33d f93b 9d3d
0.01571716 0.09189081 0.07209549 0.21400936 -0.022395551 -0.009479912 -0.055055253 0.030294057
-0.018020164 0.107742585 0.01557511 -0.120671175 -0.057249993 0.010045402 0.09162595 0.0024848755
0.06853634 0.15394258 0.1403653 0.08000248 -0.047154333 -0.006020069 -0.18655953 -0.10910456
-0.003309356 0.0087637175 -0.11065844 -0.11342772 -0.032326173 -0.08367618 -0.10105763 -0.07525792
0.10565324 0.115703195 0.098037444 -0.07286223 -0.024005642 0.019376803 0.052455727 0.2511576
-0.14176092 -0.11234932 0.12675461 0.011675996 0.18174475 0.059430055 -0.108623356 0.0037694473
0.11619969 0.15860833 -0.063864596 0.06234587 -0.10545484 0.06345805 -0.04551184 0.06957822
0.20011383 0.14614686 0.11517846 0.020302203 -0.08505834 -0.01151516 0.087472245 0.076774545

fc3.weight f4 [64, 64]
00000000: e611 fc3d 5e2c 8abd 57f3 5fbe 0992 24bd
00000010: 302a e2bd bb56 973d e1a4 583d a142 5dbd
00000020: bc15 36bd 08e6 cbbd 28d5 7ebd 019d ce3c
00000030: 743a 6ebc 9f31 22be 8cd2 a43d a40c 4c3c
00000040: 8288 57bd 6c8c 283c 011e ecbe 4b15 26bd
00000050: b343 4f3d 7255 8f3a 44b8 06be e274 f7bd
00000060: bc00 f8bd b146 b2bd a9ba 20be 44de 5cbe
00000070: 454e 9abd 63ba ce3c 5fde b8be 45e9 ffbc
00000080: 33ca db3c ab72 a5ba eed1 8bbe c7a3 74be
00000090: ddea a63d b11b 5cbd d82c 793c 63c9 7a3d
000000a0: 652b 83bd 7548 193e cc26 7cbc 8a62 f83d
000000b0: 8cae 0f3e 684d 8b3e 9529 0bbc e1a5 ed3c
000000c0: 9ae4 d3bb 65be c9be db8b 4dbe 9a83 853e
000000d0: 2230 aebe 92d9 d5be b9f7 9dbd a4f9 b13e
000000e0: c81e 68be 1305 ffbd ec2e 8cbe ea07 093e
000000f0: bbd8 433e ca3d a3bd 7643 c1bc e6e6 7a3e
00000100: a6d3 43be 2d48 99bd 1f26 3dbe ca45 20be
00000110: cdc1 033e 6c99 e2bd 335a 5ebe e321 87be
00000120: 4d7c 063d f08e 2dbe 0e94 2a3e 97ed a9be
00000130: 0b3a 53be f7aa 5fbe 3c7b 433e d508 52be
00000140: b5d9 c9bd bab7 47be 181c c3bd 0376 203d
00000150: ccf5 bd3d d299 96bd c5f4 013c dd5e 1ebd
00000160: 2dcb 47bd a380 d63e c39f 203e 5bd7 cfbe
00000170: a133 973c dc3d 83bc 2257 c13e 6d59 f43c
00000180: 2d56 9b3d c49c bf3d 8082 19be 1fe2 e13c
00000190: 2ae9 c83e 354a d6be e142 2e3d b5a9 84bd
000001a0: c5ba 0abf 796e 733e 19bf b9bd bff2 b3bd
000001b0: 8894 0fbe aaf7 36bd 20d4 3e3e b13f a8bd
000001c0: e284 603d e32b b8bd f1cf f2bd a1a8 afbd
000001d0: 7fa0 ea3e 1ca6 003f 34da 2d3a 84cd a73d
000001e0: 2aab 363e a316 80bd 85a3 a03e 9629 79be
000001f0: ec1e 3e3e 3c94 b839 7ecf 3abe 3188 653d
00000200: ef85 6ebe 5fef cb3d b3b6 fcbd 4069 a4bd
00000210: fe77 063c c720 f4bd 4497 5b3d 61f7 f13d
00000220: fc8b 1c3e 4f0c cdbd f606 bf3e 1bf1 44bc
00000230: 2fdf 65bc 22c9 cbbe 08e8 b9bc 8ee7 7b3e
00000240: 7993 43be 47b8 193c 6605 383e 873b afbe
00000250: f03e 37be 5717 a73e 0069 41be 5d9e 50bc
00000260: 1234 fabd 33da c53c 2dc2 f3bd 01a4 22bd
00000270: 3847 c9be 6f47 1cbe 2d3c 21be 1f82 f93b
00000280: 6a72 08bd d391 9fbd f8e6 8abe d3ae f5bc
00000290: 7598 943d 62ea b5bb 6174 0c3e 8a91 dd3d
000002a0: a3ca 623e e06b 36be 3db6 aabe 29b5 603e
000002b0: fece 48be 4c39 083e 264c 8f3d a729 003e
000002c0: eb53 a8bd f266 dfbe 8220 a1be 7b9e 9fbd
000002d0: 576f 84be da41 4b3e 57e5 21bd 8e3d f3bd
000002e0: cdb0 e2bd 9e5c 093b 8924 d03e 9701 58bf
000002f0: c68b 4c3e 1251 9b3d 766a 61be 7755 9a3d
00000300: 52c4 1bbe 90d2 6e3d 2861 d3be 4f7b 17bf
00000310: a8a1 ae3d 21f0 11bd 0af2 98be 8e38 16be
00000320: cec6 90be f61c 24be bd99 733e c874 9dbe
00000330: ef2d 503e c634 a6bd 6ce0 a6bd d4f0 c43d
00000340: 623e 73be 3af4 21be e629 d0be acfe f2be
00000350: 52b4 f43d 1e1d 33be e0de 50bd af33 d33d
00000360: 1d5e 893d e717 b53e 8dfb dfbb 38bc 75be
00000370: ae11 fbbd 7de3 863d 30b2 1b3e 55d9 093c
00000380: f95e 113e d84e c8bd 36fa 3abe 3c10 d7bd
00000390: d3ab 10bd 3a5c fdbd 9f07 643d 534b 883d
000003a0: d395 d0bd 3401 b03e 9f24 82ba 5e2f 373e
000003b0: 0db7 20bc 64c9 d33c 4ae2 9ebd 7bbc 1abe
000003c0: 1399 33be a316 09bd 55a9 d4bd 5454 9b3e
000003d0: 9f6f 903e d4a5 0f3c 7c1c b4be c3cb 62bd
000003e0: 26cc 883d 91d0 c73c 3f34 80be 893d 94be
000003f0: 2239 3b3e e448 7abe 5231 783a 2439 2e3e
0.12308101 -0.067467436 -0.2187017 -0.040178332 -0.11043203 0.073895894 0.052891616 -0.05401862
-0.04445432 -0.09955984 -0.062215 0.02522135 -0.0145403035 -0.15839241 0.08047971 0.012454186
-0.05262042 0.010287385 -0.4611664 -0.04054765 0.050601672 0.0010935499 -0.1315623 -0.120828405
-0.12109515 -0.087048896 -0.15696205 -0.21569163 -0.0753446 0.02523536 -0.36107156 -0.031239161
0.026829815 -0.0012622675 -0.273086 -0.23890601 0.08150265 -0.053737346 0.0152084455 0.061227214
-0.06404761 0.14969046 -0.015390109 0.1212817 0.14031428 0.27207494 -0.008493801 0.029009761
-0.0064664604 -0.39403072 -0.20072882 0.26076967 -0.34021097 -0.41767555 -0.07713265 0.34760773
-0.22667992 -0.1245214 -0.2737955 0.13381925 0.19125645 -0.0797077 -0.023591738 0.24502143
-0.19123706 -0.074844696 -0.18471573 -0.15651622 0.12866898 -0.11064419 -0.21714096 -0.2639304
0.032833386 -0.16949058 0.16658041 -0.3318908 -0.2062761 -0.21842562 0.19089979 -0.20511182
-0.098559774 -0.1950368 -0.09526843 0.039175045 0.09275398 -0.07353558 0.007931893 -0.038664687
-0.048777748 0.41895017 0.15685944 -0.4059399 0.018457236 -0.016020708 0.3776179 0.029827798
0.07584796 0.093560725 -0.14991188 0.027573643 0.3924039 -0.4185349 0.04254425 -0.064776815
-0.5419124 0.2377261 -0.09069652 -0.087865345 -0.14021504 -0.044669785 0.18635607 -0.08215273
0.054814227 -0.08992746 -0.11856068 -0.08577085 0.45825574 0.5025346 0.0006631941 0.08193496
0.17838731 -0.062543176 0.31374756 -0.2433227 0.18566483 0.00035205658 -0.18243214 0.056038085
-0.23293279 0.09957766 -0.123395346 -0.08027887 0.008207319 -0.11920314 0.053611055 0.11814762
0.15287775 -0.10012113 0.37309998 -0.012020375 -0.014030262 -0.3980189 -0.022693649 0.2460005
-0.19099225 0.009382314 0.1797081 -0.34225103 -0.17895103 0.32634994 -0.1888771 -0.012733069
-0.12216963 0.024151897 -0.119022705 -0.039707188 -0.39312148 -0.15261625 -0.15745611 0.0076143886
-0.03331224 -0.07791486 -0.2712934 -0.02999059 0.07255641 -0.0055516222 0.1371627 0.10818775
0.22147612 -0.17814589 -0.33342162 0.21944107 -0.19610211 0.13303107 0.06996946 0.12515889
-0.08219131 -0.4363323 -0.31470114 -0.077938996 -0.25866196 0.19849339 -0.039525356 -0.11876975
-0.11068878 0.0020959745 0.40652874 -0.84377426 0.19975194 0.07583822 -0.22013268 0.075358324
-0.15211609 0.058306277 -0.41285062 -0.5917253 0.08526927 -0.035629395 -0.2987216 -0.14670011
-0.28276676 -0.16026673 0.23789115 -0.3075316 0.20330022 -0.081155345 -0.08148274 0.09616247
-0.23754266 -0.15815821 -0.40656966 -0.47459924 0.11948456 -0.17491576 -0.0509938 0.10312592
0.06707404 0.353698 -0.006835407 -0.23997581 -0.122592315 0.06586359 0.15204692 0.008413632
0.14196385 -0.09780663 -0.1825951 -0.10501143 -0.035320114 -0.123711064 0.05567133 0.06654992
-0.10184827 0.34375918 -0.0009929127 0.17889163 -0.009809268 0.025852866 -0.07758005 -0.15110962
-0.17538862 -0.033468854 -0.1038386 0.30337775 0.2821016 0.008767564 -0.35177982 -0.055370104
0.06679563 0.024391444 -0.2503986 -0.28953198 0.18283513 -0.24441868 0.00094677985 0.17013985

fc3.bias f4 [64]
00000000: 6085 303e 2168 d83d e975 db3c c405 1f3e
00000010: 1bb8 ec3e dd12 a5be c111 be3d b9d1 c8bd
00000020: f7f9 d9bc b7bb ba3e c6b1 103d a536 3b3e
00000030: 2569 22be 6863 103f dfbe 003f 2df5 3cbd
00000040: 798d 373d 17c5 333e 4a6d 42be 1172 973d
00000050: bbe2 4c3e 01f6 1d3d b9d9 073e 13fa 053e
00000060: 87c9 0cbd edcc b3bc ded1 183e ee89 7b3e
00000070: 4b0b ed3d f75d 513e b2bd dc3e 537c cf3e
00000080: a648 1abd b90b a6bc 500c ef3d 1778 bc3e
00000090: 4798 21be 8660 133e ceae 0f3f 9cd4 0f3d
000000a0: 7427 b1bd aaa2 b6bd 6abf 0abe b204 dcbc
000000b0: 7c8e 07be 64c0 4c3d 01f9 d63e e8ab 0e3d
000000c0: cc05 ae3d 11b3 eb3d c585 103f 23eb 163d
000000d0: 8002 a6bd 2d0d 77be ee5d 873d ee05 a8bc
000000e0: 8aee c4bd 8ef7 d33d 2846 033f c493 08be
000000f0: 1f4c e53d 2041 f43d d18f 103e 4676 ba3d
0.17238379 0.10566736 0.026789622 0.15529543 0.4623421 -0.32240954 0.0928073 -0.098056264
-0.02660845 0.3647134 0.035325788 0.18282564 -0.15860422 0.5640168 0.50291246 -0.046132255
0.044812653 0.17555653 -0.18987003 0.07394803 0.20008366 0.038564686 0.13266648 0.13083677
-0.03437188 -0.021948302 0.14923808 0.24564335 0.115744196 0.20446001 0.43113476 0.4052454
-0.03766694 -0.020269262 0.1167227 0.3681037 -0.15780745 0.1439229 0.56126106 0.03511487
-0.08650103 -0.089177445 -0.13549581 -0.026857708 -0.13237947 0.049988165 0.4198685 0.03483191
0.084971994 0.115087636 0.56454116 0.036845338 -0.081059456 -0.2412612 0.066097125 -0.02051064
-0.0961581 0.10349952 0.51278925 -0.13337618 0.111961596 0.11926484 0.14117362 0.0910459

fc4.weight f4 [4, 64]
00000000: 8029 f53d b0ed ae3e 5fa0 00bf a7c3 8cbb
00000010: 1917 4b3e f4dc 83be 497a af3e e07e 00be
00000020: 9ff2 e4bd 71ba 9a3e 7ab4 683e d1fd 0e3e
00000030: 6ff8 08bc 3ff2 4e3e 0de1 203e d5d4 fbbc
00000040: 8653 8f3e 4c72 cf3d 6d11 07be ca9d 8f3c
00000050: 1fef e03d 4e1f 0dbf 225b 793e 9c7a 143e
00000060: ca52 ddbe 2f90 1f3e 79c6 5c3d c2b0 6c3e
00000070: 0362 a33e 69ae b43d e2b2 d23d 2531 123e
00000080: 2edc 163e 71ea c93e 978e 0dbf 9126 193e
00000090: fb04 2a3e 675e 703e aecb 863e 4508 8b3e
000000a0: 06e1 283d 8c20 163e 26cf aebe 5465 753e
000000b0: 5ee7 3cbd 3852 993b e868 253e 5af0 8e3a
000000c0: de82 6ebe 93fb 333e dbd9 833e d464 213e
000000d0: 7c4a 7bbd b23e 81be e58b 803e 51c8 9d3e
000000e0: 7db0 2b3e 8ab5 be3d 48b7 833e 93d5 3ebd
000000f0: 2912 18bf 61ad 0f3e 0f87 9c3e 3446 05bf
00000100: 89c0 863d d46b 663e dcab 8ebe 4bf0 f03d
00000110: 425a 163e 5159 98be e184 fa3e 9709 723b
00000120: 23d5 8ebe fc6f 393e fcd9 8b3e bfb8 133e
00000130: a0ee 8bbd 3c32 8c3e 6b43 483e 9f53 013e
00000140: 867a 773e 0d51 5a3e cdbb 0f3e e7f8 be3e
00000150: 8a4c e03d faac 46be f1b1 c53d 567b 7f3e
00000160: ac29 c7bd 5ec9 843d 8b60 7c3e d408 8f3e
00000170: 054e 813e 2454 f0bd 611c 363e 1249 db3d
00000180: d021 45be 40b6 c13e 8982 6fbe f3a4 553e
00000190: 4d4f 5fbe de0f 1a3e 716d 833e b4f9 ad3e
000001a0: 5587 a73d 5f86 debe b667 233c e2b4 debe
000001b0: cd8f ccbd 4633 f13d 5119 4f3e 3678 123f
000001c0: 3979 1a3e 6789 5e3e f8c7 783e 4d93 833d
000001d0: 48a7 b03d 077b 1d3d 6fbc 8d3e c6da 0fbe
000001e0: 9a83 463e e83a d73e 226d 1c3e 6269 22bb
000001f0: 4dad 8b3e 9589 063e 5fa3 4c3d ba9c a0be
00000200: 64e5 683e 4dcd 8d3d bf0d a13e 8ef5 ad3e
00000210: 835f ec3d f882 ccbe 91f4 91be 6c6b 95be
00000220: 6c2d 60be 918f 983e 2b3e 723e 5947 003e
00000230: ac3a b2bd d403 573e 4fdc 0f3e e26c cf3e
00000240: e9ce 863e 41cf 843e 0e8b 2e3e 732f 38be
00000250: 8561 cabc da37 96be 9979 1c3e 9800 16bd
00000260: 16fc a6be 135b 713e ee72 9b3e 77b4 893e
00000270: 082e 373e f984 643d 9ce3 643e 4f32 4b3e
00000280: abd2 18bd 1f6a 6c3d c717 a5be 3c40 e73d
00000290: a926 55bd a4a9 f73d f932 493e 1ec2 90be
000002a0: 3e97 d13d 2be8 743e 6886 58be 3437 113c
000002b0: 3f7d c83e 8565 543e 0972 193e 3bf9 9bbd
000002c0: 5f92 b03d b58a 363e 9960 903e b41b f03d
000002d0: abfc 3e3e 5323 54be 9d74 e93c d649 dc3e
000002e0: 4349 06be a28f ce3e 4245 953e ffdb 64bd
000002f0: 6cf8 a63c d2d9 a7bd 25fa 963e 7e7f 04bf
00000300: 15af b83d b6d8 a83e 7cb5 2fbd 330a 433d
00000310: e4df 873e 7e09 95bd 4b1b 26be 3507 81be
00000320: d517 c13e 7f5b 6a3e a31b 703e b3e4 d4bc
00000330: ea6b fb3c 3f62 543e a2bb 6a3e 67ec aabd
00000340: bcf5 89be decf a23e a6bd db3d f8ce 1e3f
00000350: f9b5 f93d e117 96bd 8e6a d33d 2304 39bd
00000360: 2767 69bf 3361 723e 670f 573e 4e8b 2e3e
00000370: 4182 e73d 063c 373e 366c 6c3e 01b8 493e
00000380: c0d0 70bd 1fe1 d13e e6c6 abbe db7c 0d3e
00000390: 4708 b1be 28ae 153e a4bb 533e cc57 163f
000003a0: a1ba 3dbd a8e1 5fbd 5a2f 103e 8297 013f
000003b0: 3d6f ddbe eb0e 7f3e 9ec2 653e 296c 1dbf
000003c0: bb7d 5d3e e1dc fc3d c3ad 543e daaa 8c3e
000003d0: 04f4 703e 6a7b e4be a919 a03e 4a6a 68be
000003e0: 7290 243f f9cd ae3d 48e1 063e 855f 51bd
000003f0: 75bc fcbc 248d 1d3e e6fc bf3d 97eb c5be
0.11970806 0.34165716 -0.50244707 -0.0042957845 0.1983303 -0.2575451 0.34272984 -0.12548399
-0.11179089 0.30220369 0.22725096 0.13964011 -0.008360012 0.20209597 0.1571085 -0.030741135
0.2799341 0.10129222 -0.13190241 0.017531294 0.10983109 -0.5512589 0.2435117 0.14499897
-0.43227226 0.15582345 0.053900216 0.23114303 0.31910715 0.088223286 0.102880254 0.1427656
0.1473243 0.39436677 -0.552957 0.14956118 0.16603462 0.23473512 0.2632727 0.27154747
0.041230224 0.14660853 -0.34142417 0.23964435 -0.046119086 0.0046789907 0.161533 0.001090537
-0.2329211 0.17576437 0.25752148 0.15761119 -0.06135033 -0.25243145 0.2510673 0.30816892
0.16766544 0.093119696 0.2572577 -0.0465904 -0.5940271 0.14030983 0.30571792 -0.52060246
0.06579692 0.2250207 -0.27865493 0.11764582 0.14682868 -0.29755643 0.48929504 0.0036931986
-0.27896985 0.18109125 0.27314746 0.14425944 -0.068326235 0.27382076 0.19556968 0.12629555
0.24167833 0.21319981 0.14036484 0.37299272 0.10952099 -0.19401923 0.0965308 0.24949393
-0.09724745 0.0648372 0.24646203 0.27936423 0.25254837 -0.117347986 0.17784263 0.107072964
-0.1925118 0.37834358 -0.23389639 0.20863704 -0.21807595 0.15045115 0.25669435 0.3397957
0.081801094 -0.43461892 0.009973457 -0.43497378 -0.09988365 0.11777358 0.20224501 0.5721468
0.15085305 0.21732102 0.24295032 0.0642458 0.08625656 0.038447406 0.27682826 -0.14048299
0.1938614 0.4203713 0.15276006 -0.0024782051 0.27280656 0.13138421 0.04996049 -0.31369573
0.22743756 0.06923924 0.314558 0.33976406 0.11541655 -0.3994367 -0.28506902 -0.2918352
-0.21892327 0.29797032 0.23656528 0.12527217 -0.08702597 0.20997554 0.14048885 0.40512758
0.26329735 0.25939372 0.17045233 -0.1798685 -0.024704704 -0.29339486 0.15280761 -0.03662166
-0.326142 0.23569898 0.30361122 0.26895496 0.17888653 0.055790875 0.22352451 0.1984341
-0.037310284 0.057718392 -0.32244703 0.112915486 -0.052038822 0.12092903 0.19648351 -0.282731
0.10233925 0.2391669 -0.21145022 0.008863259 0.39158055 0.20741852 0.14984907 -0.07615896
0.08621668 0.1782635 0.28198698 0.11724034 0.18651073 -0.207166 0.028497988 0.43025082
-0.13113885 0.40343958 0.29154402 -0.055873867 0.020382129 -0.08195843 0.2948772 -0.5175704
0.09017769 0.32977837 -0.042897686 0.04761715 0.26538002 -0.07277201 -0.16221349 -0.2520081
0.37713495 0.22886465 0.23448043 -0.025987959 0.030691106 0.20740603 0.22923139 -0.083458714
-0.26945293 0.31799215 0.10729532 0.6203456 0.12192912 -0.07328773 0.10323058 -0.04516996
-0.91173023 0.23669891 0.2100197 0.17045328 0.11304141 0.17893991 0.23088154 0.19699098
-0.05879283 0.40992066 -0.33550185 0.1381716 -0.34576628 0.14617217 0.20677048 0.5872772
-0.04632056 -0.054658562 0.14080563 0.5062181 -0.4324893 0.24908035 0.22437522 -0.61493164
0.21629994 0.12346817 0.2076941 0.274741 0.23530585 -0.44625407 0.31269577 -0.22696796
0.64282906 0.0853538 0.13171875 -0.051116485 -0.030851582 0.15385872 0.093744084 -0.38656303

fc4.bias f4 [4]
00000000: 11b6 d13e 4fae a63e 6086 b03e a981 983e
0.40959218 0.32554862 0.3447752 0.29786423
